assignment/assignment2/tmp/part4_weights_600iters.npy (npy, 62928 bytes, 1 tensors)

array f8 [785, 10]
00000000: 609d c8de 3f62 d0bf 4ebf b860 7693 d83f
00000010: bc04 2605 230c d63f f551 8ed4 d126 d4bf
00000020: e890 4f67 73b3 b9bf 54f0 f0ed db09 d43f
00000030: 20b8 9068 15fb 983f 0a66 bf07 893a c5bf
00000040: d08b 370f 393d a63f e7e9 7735 826d d3bf
00000050: 8cd2 d104 8cee b9bf f07c 6bc3 1c1a bb3f
00000060: c8ef 0157 521f d03f 9822 129d 9215 a9bf
00000070: f08d a78c 7f64 c33f 9769 e18c dcf6 d6bf
00000080: 0512 c792 d868 d2bf 7fac 73ae abbd d5bf
00000090: f406 d527 7d70 c1bf 0098 9dcc d3d2 9e3f
000000a0: 66c8 ada9 eb4a d0bf 5051 b97c e904 c0bf
000000b0: 3862 282d 4e86 b5bf 8806 e5dc efb8 babf
000000c0: 0097 0846 15e3 82bf 34cf 5e0e 0a65 c7bf
000000d0: 20c9 06ff 77bd b7bf 5012 1efa c36e bf3f
000000e0: 5c29 20d9 67d2 d2bf 5a9e 7577 2461 c7bf
000000f0: 1ec7 3bc8 e367 d33f c026 a6b3 7271 773f
00000100: f615 cdaf a376 d03f 00e0 2d69 b972 68bf
00000110: 470e 05c7 f073 c6bf 272d 7236 78e5 c8bf
00000120: 6755 a38f 63ab c5bf 5ed3 c1eb d825 d53f
00000130: 803a 55a6 3a0d c83f 2895 72ab dab3 a1bf
00000140: d028 ea4a 384b 9ebf c243 8bc9 74ff d2bf
00000150: a039 fbd0 7622 8e3f 4236 360e 6cfe d13f
00000160: 3c0d 3993 7e17 d2bf dc0a 053b fe14 ca3f
00000170: b8b2 010e 80b2 c23f 50c3 8f9b 9177 d4bf
00000180: d0e6 937a 47e9 94bf ce98 9174 8773 c2bf
00000190: ca2f cda8 d1d0 d63f 3df5 c593 06f0 d0bf
000001a0: dab4 8c17 edd6 d5bf 2780 275b 4998 d4bf
000001b0: a0ad 612f 113e 893f 1699 9c87 db96 d1bf
000001c0: 4048 749d 750a 8bbf 90d6 0d84 f095 abbf
000001d0: 9c92 8c91 e566 d13f ce9d 1c54 28ac d43f
000001e0: 7476 8c1b 6985 d23f 8c85 c556 febd d1bf
000001f0: 6811 ab75 f7ff a8bf 6c7d 57b7 2896 bdbf
00000200: 620f 7ff2 996e d1bf 6a83 6871 7261 cabf
00000210: 0879 9d46 63d6 c73f 0a7d e6d3 c1d5 cbbf
00000220: de83 45b5 d2da d73f 90e3 462f c758 c0bf
00000230: c0ff 39bc 9176 813f 5420 86ea 0c36 b53f
00000240: 30aa 23af 962b c43f 18eb 0d4f 63cb a4bf
00000250: 2805 3eec df06 c63f 5029 cd8f ad3c 9f3f
00000260: 1db9 d974 8692 c9bf 477c 4042 872b d9bf
00000270: f4f5 0f00 5473 c1bf e72c de3a 43a5 d8bf
00000280: ed5b 7474 7b47 d6bf b088 8a01 e754 a6bf
00000290: 5036 1fab de16 c5bf a037 f90c 4df3 93bf
000002a0: e8e2 4e5e 92e3 d5bf b78b d7fd 9d4d d8bf
000002b0: 16aa 49d3 de61 d1bf 58c6 1362 3224 c13f
000002c0: 7cff cd95 f9de cf3f a01f a579 8dc0 9f3f
000002d0: a09b 0c75 a9d7 bc3f f845 8239 973a d33f
000002e0: 080d aeb9 7e9a b33f 78e1 f903 c305 c83f
000002f0: 8041 b1a4 4868 ca3f cd0b 9873 3aeb c3bf
00000300: e83a b1ae 2510 b73f 6603 b0e8 276a d13f
00000310: dc9e d197 de2e c73f b60e 7280 c93d d33f
00000320: 8700 e9dc ab2c c9bf dcc6 7913 915b bdbf
00000330: 6464 dee7 8d70 d2bf cad5 a97d 772a d3bf
00000340: c8ac b1b3 b6f6 bd3f 92a1 455d 7df2 d23f
00000350: dd48 c1ff 607d c9bf 145e 04c3 ef7d d5bf
00000360: ba4b c5c3 6806 cebf 50da 6d75 500f d13f
00000370: aa63 9ae6 d427 d73f 5d34 d826 c1fe d2bf
00000380: 00f6 16cf 5a75 98bf 9cc4 d1ff f2ac d6bf
00000390: 00a7 2df4 b61e b03f 64c1 fe3f 4b32 cdbf
000003a0: 203e 3d60 e949 cbbf 90e9 f33d c4e8 a5bf
000003b0: a469 650d 1bb8 c0bf 802d f368 0e63 a4bf
000003c0: 470a c8a0 8dc6 b23f 7c17 cdb1 dbca cb3f
000003d0: 3013 c27c 02da bdbf 7980 a80b 2174 cabf
000003e0: 3862 7bbe 4295 c03f 7075 768a 19f8 d2bf
000003f0: 6c26 9143 8949 d83f 55b2 3d9e aaab c33f
00000400: 6f2c eb0f 3e0c b33f f51e cc49 3afc bcbf
00000410: 8928 d4f4 e3fd 83bf da87 ea70 6ba6 abbf
00000420: 4fe2 c896 6981 b1bf 2848 fd49 79c1 b83f
00000430: 1078 a221 9a7b d43f 20d5 7673 fb16 b6bf
00000440: 74b3 597f 49da bd3f 891d 8b7c e0ae b9bf
00000450: b61c ea34 b4ed 95bf c578 2a8d 6bfb c0bf
00000460: d1c1 804d 9433 d9bf 3c6a 011b 3014 d1bf
00000470: 84a6 f83a 34f6 c43f c0be 5c4b 531a d23f
00000480: f034 64bf 03c6 d23f fe29 0f76 1d0b d0bf
00000490: 23f7 c84a 5d6c c9bf 3ff2 8c84 9062 913f
000004a0: ad68 f44b 9a30 d73f 6e1b bd62 e595 d63f
000004b0: 096e dfef 5b12 d13f 36a7 8432 f236 af3f
000004c0: 9dfc ed15 df05 c63f ae1e 7198 daf5 cb3f
000004d0: 1d89 2a0e 1ca1 d13f 1639 83cc 7b57 d93f
000004e0: c92b d4c6 26a6 64bf c6eb 000e 89e4 d53f
000004f0: 29e2 0c5a a215 793f d6a8 ea08 2580 a8bf
00000500: 0e38 8e76 7e47 d83f 75b3 105d 0732 d0bf
00000510: da22 1019 9c08 d0bf 8e23 7b3e 71f5 d33f
00000520: 3018 4317 b014 c0bf cc5b 3471 62d7 d1bf
00000530: d5e6 33ab aae1 d8bf 9a3d 22cd 6179 d83f
00000540: e0ce 8517 66a0 c8bf d0e3 b63f 19dd ccbf
00000550: 6c08 7b02 bbea cd3f 4621 4dae 79ca d03f
00000560: 2840 06ad 9236 acbf e88c 7de5 ea8f c03f
00000570: 884d aa4d 41e3 d33f 902b e31a 1359 abbf
00000580: 0648 981b cc9b d0bf b63d f3b4 82a0 d13f
00000590: 2238 a5b4 8629 d93f bd1a 3fd3 7fb1 c8bf
000005a0: 4813 ffdc c66e c93f e06a b099 bd05 d5bf
000005b0: d0fa 020b 50eb c73f 9f34 ac29 589b d8bf
000005c0: 585a 42bc a0b6 a1bf 6d82 2be1 cc99 cdbf
000005d0: 3c28 8bfe 5052 ca3f 0487 d0d2 8120 d7bf
000005e0: 4622 d0a4 c8f6 d13f 14aa 7f15 4fac b43f
000005f0: 4452 94ca 8f2c d1bf 807f c8a0 3b39 9b3f
00000600: 0c44 5fe3 5539 b7bf 5011 497e ca1c a43f
00000610: 84ea ec59 6c97 d1bf 6ac8 ee23 d4e9 cabf
00000620: 8881 7e96 376d b63f e85b 6a45 09ce b8bf
00000630: 889c ebc2 5c38 c93f 00d0 ba69 60b3 253f
00000640: 553d 2687 bf6f d9bf 5774 fe90 38ae cdbf
00000650: 52e1 1b3a 4322 d5bf cc5f 7789 95a3 b43f
00000660: 679a 0aaa fefb c8bf a074 6099 77a7 c23f
00000670: 6e1e a868 b709 c0bf 007b bf8d 7174 6e3f
00000680: edde 09be afef d4bf 683f fc27 449c adbf
00000690: 28a6 7067 699e cc3f ac83 4c5f 81a2 d83f
000006a0: 9d11 20bf 5875 c8bf e000 66a7 e5bc c53f
000006b0: a0b6 d8cd c40b d13f 60e3 842f 7af1 c6bf
000006c0: aa2e f168 20bf d4bf 10f8 3a4b 4bae cc3f
000006d0: 3011 52bc bb92 903f 2c70 906b 540f d7bf
000006e0: 900f c620 6cbb a03f 5880 119b c978 d2bf
000006f0: c6c5 f5d3 be8b d13f ad7a 60f0 c40a cebf
00000700: 6ca8 0cfa 82a3 bbbf 1c96 65c7 8c0d d6bf
00000710: 6c66 3b0e ebab c63f 5d33 5cd4 35f0 d8bf
00000720: 7229 aa1f 08d8 d63f 6fc7 328b dd74 d7bf
00000730: 2872 d585 3f36 d33f 80e1 ef21 301d 94bf
00000740: 60cf db64 9c30 ccbf 1804 a42b 2e4b a33f
00000750: 70db 4bdf 1940 ab3f a80f 5a1d 93ff d73f
00000760: 904d 19b4 9b61 c5bf d43e dda2 1b25 b5bf
00000770: c4fa 759c e808 d9bf b439 5240 650d c13f
00000780: 1f0b 96ba a2f8 d3bf da44 9e97 4989 d13f
00000790: 5824 d966 9ffc c33f 7e81 cc26 2c2c d83f
000007a0: cc00 7fd4 c0b8 b6bf 9000 2c79 0a76 c53f
000007b0: 086d 663d 6377 d1bf 0869 af16 9bcd bd3f
000007c0: 80b4 6878 ba6e 96bf f4a7 463a 14bd d7bf
000007d0: e858 f085 259f d7bf 88a1 6839 267a bc3f
000007e0: 0781 e459 5239 c4bf 74ba 5621 a971 c7bf
000007f0: 9ca7 6d1d cdfd c43f 869d f2ec 3e56 d43f
-0.25599667316642716 0.38400039144015785 0.3444907713201919 -0.3148693633786757 -0.10039445183025786 0.3131017516750536 0.024395308024559026 -0.16584885481169948
0.04343584357027164 -0.3035588762428731 -0.10129618756929853 0.10586719294541402 0.2519117211993458 -0.048992711709677284 0.15150446288963293 -0.35881723173010854
-0.2876492913603957 -0.33970157657922323 -0.1362453884594782 0.03010111748098865 -0.25457278795432214 -0.12514990415605576 -0.08408058741077518 -0.10438441412864041
-0.009222189140085657 -0.1827709741752358 -0.09273481346352641 0.12278389793761701 -0.2940921421401492 -0.18265205224018893 0.30321592859319135 0.0057234268700853685
0.25724117439344185 -0.0029843922906671594 -0.17541322438965976 -0.19450285585876623 -0.1692928744657067 0.3304350187602746 0.1879037201092224 -0.03457530348650045
-0.029583816120557327 -0.29684180910140523 0.014714172604183784 0.2811536921297809 -0.28268398644668813 0.20376565820523396 0.14607239421765938 -0.3197978991657253
-0.020421139580298953 -0.1441506690200129 0.35649529919168954 -0.26465000563605995 -0.3412430505730534 -0.32179483320033103 0.012325414904089282 -0.274832613404571
-0.013203543536779105 -0.05387832271564463 0.27190531934528805 0.3230076619533663 0.28939273538876553 -0.27722128366266285 -0.04882787047748388 -0.11557249523274543
-0.2723755710724075 -0.2060988477469679 0.18623009632114695 -0.21746085020729594 0.3727309007863918 -0.1277092915386473 0.00852693420097228 0.08285599446947006
0.15758021880840678 -0.04061422672289988 0.1720847991491976 0.030504905607167843 -0.19978409486379514 -0.39328175992881537 -0.1363320350937297 -0.38508682965102853
-0.34811293003571003 -0.04361650365650982 -0.164760430865885 -0.019482807080116182 -0.3420148774126077 -0.37973737515693123 -0.2715985358578633 0.1339171389477538
0.2489921552150881 0.031007967519400048 0.11266574008605668 0.30045109382726265 0.07657615693283415 0.18767583555360168 0.2063074878847253 -0.15561609882578722
0.09009013667057852 0.27210424159425484 0.1811178437521822 0.3006461862898776 -0.19667576109532467 -0.11467844701271751 -0.288119770464226 -0.29946696540659146
0.11704580199300374 0.2960503970012037 -0.19913876045263282 -0.33581155819544617 -0.2345705943976933 0.26655971019446145 0.36180613059837674 -0.296798980650072
-0.023885172738792093 -0.35430598242153066 0.06296866856942174 -0.22809734940302484 -0.2131931037824737 -0.042791492998691116 -0.13061845926388316 -0.03981823950888508
0.07334218192412677 0.21712824041076917 -0.1166078142724245 -0.2066689783978324 0.12955507565381352 -0.2963928081679432 0.37948829267825235 0.1536763451253075
0.07440555466307484 -0.11322368909543086 -0.009761601361351306 -0.05400405648585123 -0.06838092738406341 0.09670217567807582 0.32004407200463536 -0.08628818100881519
0.11661204680576792 -0.1003246597348292 -0.021414581040997326 -0.13267273323885412 -0.39377315109871086 -0.26685717236765405 0.16376355056245384 0.2828567729911633
0.2933358544403992 -0.2506784108087742 -0.19861951972591738 0.016977556314701877 0.3623414746995291 0.35289892809344436 0.26674555230212654 0.06096608034779509
0.17205418177397727 0.21844036525202654 0.2754583490697245 0.3959645745461712 -0.0025206334454472607 0.3420736920122035 0.006124147593077591 -0.04785266622396171
0.3793636472481702 -0.25305351341631105 -0.25052549789010714 0.31185561277066476 -0.1256313432297147 -0.2787710290444323 -0.38877360075967476 0.38240857155411734
-0.1923949828011393 -0.22549739466719965 0.2337259065735141 0.2623581125412965 -0.05510385858644923 0.12939201551043955 0.31074555000778803 -0.053413960487510015
-0.2595091123085925 0.27542178793825245 0.39315955773497724 -0.1929168492772159 0.19869313994254356 -0.32847538002685717 0.18686867273023333 -0.38448146886441664
-0.03459646509252384 -0.23125611300112628 0.20563709668050645 -0.36135907733306305 0.2806874856474092 0.08075422549124084 -0.2683448293985615 0.026585513771464786
-0.09071862031056827 0.039282157817555174 -0.2748671415498978 -0.21026088480499833 0.08760402130292821 -0.09689386315072535 0.19703254239650314 0.00016556312481486035
-0.39744556616002075 -0.23187930183204017 -0.33021622347543655 0.08062109571562742 -0.19519027045062673 0.14573569287396015 -0.1252965222376931 0.0037176339956056514
-0.3271293025822917 -0.05783284175970388 0.22358434248717285 0.38491854006320625 -0.19108113605774416 0.16982718156578525 0.2663433084697804 -0.1792443019892529
-0.32416544197324504 0.22406903432232683 0.016184743279624658 -0.360310654681373 0.03267991924351954 -0.288622285303068 0.2741543836519579 -0.23470365273620555
-0.1079637394401815 -0.3445770213350856 0.17712152666972558 -0.38966127146050217 0.356935530588678 -0.3665078982695524 0.30018604345039757 -0.019642593451835832
-0.22023348736513082 0.03768295557711826 0.05322342730317231 0.3749740397108732 -0.16704126638306294 -0.08259747244050725 -0.3911687400758803 0.13322129860575915
-0.3120505163316682 0.27400436216801227 0.15614693185696882 0.3776960734267262 -0.08875661075490199 0.1676648227367008 -0.27291184421638137 0.11641854575956156
-0.021906770323927294 -0.37091546717658663 -0.36908853607145753 0.11123885060863448 -0.1579993189743691 -0.18315614822263948 0.16399539887362102 0.3177640260641613
