assignment/assignment2/tmp/part5_weight_5e-5_moment.npy (npy, 62848 bytes, 1 tensors)

array f8 [784, 10]
0	0xbfb4e57206801958	-0.08162605913830612
1	0x3fd2a18319884e08	0.2911079167690507
2	0x3f66a51403709f00	0.002764262284035257
3	0xbfc5a2644de21537	-0.16901830485236655
4	0xbfd6ec88484c4337	-0.35818678913442475
5	0x3fc21e9837028470	0.14155867277171152
6	0xbfd6c7639c13e4af	-0.3559197448917741
7	0xbf92e2c05774e930	-0.018443112695629427
8	0xbfc0ed956921f76e	-0.13225047715598798
9	0xbfd1097d3920a468	-0.2662041719327761
10	0x3fd4ed0985960236	0.3269676022100926
11	0xbfd08cfc68589da0	-0.2586051005368635
12	0xbfcb46b21cf33070	-0.21309496320316468
13	0xbfd4be6975c5ea0a	-0.3241218233230546
14	0xbfc0e74f8ef30c60	-0.13205904464675466
15	0xbfd3df2a8e95d404	-0.3104959862169496
16	0x3fd8ca1cc2b4910c	0.38733595861619174
17	0xbf97589f3dc69da0	-0.022799003739832124
18	0xbfc80d1d085f11d7	-0.18790018948324302
19	0x3f9fee5d0e71b8e0	0.031182722097974458
20	0xbfc8bcfebae7b2a4	-0.1932676708815012
21	0xbfb9519ad6de9d74	-0.09890144105758286
22	0xbfcacd8ebc8805ed	-0.2093981190264879
23	0x3fd27c84fe905a38	0.2888500677085264
24	0xbfd268777240294d	-0.28762613446510416
25	0xbf93329340174ca0	-0.018747616564564695
26	0x3fbc9715888c5270	0.11168036063856746
27	0x3fc06ddd944bb68c	0.12835283032420752
28	0x3fd7db7cf194ece6	0.37277148811308647
29	0x3fc9ec2dd84e5728	0.2025201135808683
30	0x3fc14d498edbee40	0.13517112231771655
31	0x3fd359ad65af2658	0.3023484700212058
32	0xbfd0298a9737183e	-0.2525354840003081
33	0x3fd8c0459448a32a	0.3867353389819522
34	0xbfd1639cb296d3aa	-0.2717048400912129
35	0x3fd71f23000f318e	0.36127543454929245
36	0x3fcced4760a0fc28	0.22599117487149667
37	0xbf994d71de0871e0	-0.024709490944688883
38	0x3fcba0e94f221adc	0.21584812511374352
39	0xbfd5a744e751076c	-0.3383342989874254
40	0x3fcab8e9423c8bb0	0.2087680409832422
41	0x3fcb1a13a0b5638c	0.21173329684350184
42	0x3fb2d8b9f28dd568	0.07361948177079614
43	0x3fcf4fe4023247dc	0.24462556941267521
44	0x3fd51c1d5ef3839a	0.329840986944015
45	0xbfd4a2979ad1770a	-0.32242384070365004
46	0x3fd8379e17fea562	0.3783946260760641
47	0xbfc8c2500796a374	-0.1934299504330529
48	0xbfd3fedb625f95b2	-0.31243023497367084
49	0xbfafb7ca273347d8	-0.06194907883185835
50	0xbfd3b36f03c66d4d	-0.30782676094687106
51	0xbfd5a298fb057988	-0.3380491687184066
52	0xbfc974d248b0ffbd	-0.19887760686287762
53	0x3fd456ee7654914c	0.317805877263045
54	0x3fcb5abcbddf9eb0	0.21370658179443103
55	0x3facf337190b1e90	0.05654308491426463
56	0x3fb94e9e32941eb8	0.09885586485699605
57	0x3fa9d823997e0fd0	0.050477135168904064
58	0xbfcfff3a0f14ee90	-0.24997640358366313
59	0xbfc648ff869e9024	-0.17410272668087245
60	0x3fd3cf753e56d782	0.30953723037543324
61	0xbfd86415eae73ac0	-0.3811087411858516
62	0x3fb33e5f8e9dfeec	0.0751704905687764
63	0xbfd3adb0dac3e982	-0.30747624744221735
64	0xbfb4ec9a54b2bde8	-0.08173527305438422
65	0xbfd7011b4f0db54c	-0.35944254608223924
66	0xbfc7fe0f5c8d8464	-0.1874407960813499
67	0xbfd930e5f4c51375	-0.3936095133142808
68	0x3f9edcfa1b238500	0.030139835268419013
69	0xbfb029818c128ff8	-0.06313333196391102
70	0xbfbcc827aa8b8d74	-0.11242912210177797
71	0xbfcf574fe08fb97a	-0.24485205140031124
72	0x3f935093e7f05f50	0.018862067252569503
73	0xbfcc3099e3af21ca	-0.22023318879497672
74	0x3fd2b9006f69e290	0.2925416076682632
75	0x3f926eabc4254700	0.018000301214960324
76	0x3fd68a02aa6e623e	0.35217348712606966
77	0x3fd2c320d4285c9e	0.2931596824505024
78	0x3fd4c6276b559dc2	0.3245943592250705
79	0x3fc0b8df90633800	0.13064188528227305
80	0x3f9f50a327d34980	0.0305810444886645
81	0xbfd7ad66e37c21c5	-0.36995861258813206
82	0x3fc11c7c840c6b48	0.13368183562928437
83	0x3faff9ec8608a4c0	0.062453643189948504
84	0x3fd1898d2d94c15a	0.27402047587658773
85	0xbfb10861e98715a0	-0.0665341563354418
86	0xbfce47b73f3be360	-0.23656359279245986
87	0xbfb3debf429c3694	-0.07761760116792465
88	0x3fc2e1d763142920	0.14751713121251786
89	0x3fbe4d8862d92870	0.11837055600440904
90	0x3fbf22e0de433fc8	0.12162595201812032
91	0x3fcecd238134e190	0.2406353360072555
92	0x3fd0ae0267cf5bbe	0.26062069070524874
93	0xbfbc5a9a9d7328e0	-0.11075750679006857
94	0x3fd533b2dd874da6	0.33128043779034966
95	0x3fd4fb134d809fb6	0.3278244263515221
96	0x3fcb407a273aaddc	0.21290518680085213
97	0x3fc942a3c9800034	0.1973461851011976
98	0x3fd44c2aa215d66e	0.31714883640902414
99	0xbfb6d53da5a987ec	-0.0891912965248875
100	0xbfc91339547d8f17	-0.19589916825781792
101	0xbfd0801a7eb13278	-0.2578188168743405
102	0x3fc29d6cb8144668	0.1454292200874534
103	0xbfcf628adb08dfa4	-0.2451947755341709
104	0x3fd14fbe8ab6e8ac	0.2704922060617132
105	0x3fd5713f90d4a952	0.33503712791084184
106	0x3fcd21136d02d2c0	0.22757189581684223
107	0xbfd5a8277f753102	-0.3383883232788919
108	0x3fc90e596febb158	0.19575040783764552
109	0xbfc85b5c51ddb86a	-0.19028810498588494
110	0x3fb49c21d8e6484c	0.08050738854788725
111	0x3fc036151a612c28	0.12665046489777976
112	0xbfb7e167ce055734	-0.09328316478544424
113	0x3fd606a70d596c3e	0.34415603927272176
114	0x3fd75e9972a520d8	0.3651488895016093
115	0xbf958873c1aeda00	-0.02102833623549749
116	0xbfbcf0906bc0f5dc	-0.11304571753222298
117	0x3fb790096ac42b08	0.09204157692526505
118	0xbfc293d362e78840	-0.14513628320043104
119	0xbfc0b6e584076d30	-0.1305815596268558
120	0x3faf1a55af0ab47b	0.060747792832764845
121	0xbf907181d24e9748	-0.016057995282287935
122	0x3fd29a40884d2c7b	0.2906647997921891
123	0x3fd20fff4910e270	0.2822263921293944
124	0x3f9f5180e1a18c0b	0.030584348460603688
125	0xbfb3e012517c146a	-0.07763781060573796
126	0xbfd2e2d0051dfbd2	-0.29509354114264597
127	0xbfd2082a08a7ee43	-0.2817483028918312
128	0x3fc5db9b228482d4	0.17076434312277533
129	0x3fcac9bec315cf9e	0.20928177381176466
130	0xbfc56679b9b984d7	-0.16718980377758072
131	0xbfcc400e5b69e269	-0.22070483649783348
132	0xbfd8579ee8caf26c	-0.3803479455344021
133	0x3fce6ff6875925cb	0.23779183968353687
134	0x3fc2cc04501b060e	0.14685110007671692
135	0x3fd495f36eed6956	0.3216522773051528
136	0x3fcf1bed168126ec	0.24303973769047305
137	0x3f86b96dad796b20	0.011095864159121727
138	0x3fc99d2905c18789	0.200108650026831
139	0x3fd6bd7052abea66	0.35531242440598587
140	0xbfd0855bf3cefc6c	-0.25813959893634464
141	0xbfd2f8d687187bd0	-0.2964378661435463
142	0x3fa1ef358ec5aa75	0.03502814643691902
143	0xbfc529dc22ff4fdc	-0.16533996304371967
144	0xbfbdefc6da3a8dcc	-0.1169399531159378
145	0x3fd503b98c68f851	0.3283523436729228
146	0x3fb300fcd1b9658d	0.07423381920070522
147	0x3fd7cc5687f07b50	0.3718468024762176
148	0x3fbe4bb827b8cb59	0.11834288568279074
149	0x3fd45c7410e4e56a	0.3181429066640563
150	0x3fc917964b674da2	0.1960323208028117
151	0x3fd38b84773c16df	0.30539046901718153
152	0xbfcb14e17e63971c	-0.21157473250712477
153	0x3fbb085f48013262	0.1055964995186485
154	0xbfbc5af6aad401cb	-0.11076299353226841
155	0xbfc3f6a207440ae2	-0.15596413950705484
156	0x3fb5650147d97ef1	0.08357246402874431
157	0x3fc673e5ab49a4e6	0.17541190017372016
158	0x3fab9cbfdd088ca6	0.053930278522124994
159	0xbfc796ddb4fbf811	-0.1842915662491014
160	0xbfd079f021f64806	-0.25744250599484564
161	0xbfc2e1b2e223f050	-0.14751277963648812
162	0xbfb3aeee001900ec	-0.07688796522507219
163	0xbfc93c98be0dc7c4	-0.1971617630002226
164	0xbfcebf2e80d1a090	-0.24020940103514876
165	0xbf9d1e4b9373f080	-0.028435879587946022
166	0x3fc22515d74cf4b4	0.14175675404286425
167	0x3fd164704f52043c	0.2717552923787172
168	0xbfb20b4347b9ede0	-0.07048435689096477
169	0xbf92cccad753b660	-0.01835934581042975
170	0xbf91577e42e85520	-0.01693532260295172
171	0xbfc27e3eda5481fe	-0.14447770748758154
172	0x3fb94f1e9f5cef74	0.09886351957987732
173	0x3fb263fc79d11474	0.07183816885033584
174	0x3fc1d28e034306ac	0.13923812064426977
175	0xbfd31647b2b8c3e5	-0.2982348676042064
176	0x3fa7779b96d84500	0.04583440986983511
177	0x3fd273f2742124ca	0.28832684841888734
178	0x3fd1f5ff92ca7274	0.280639546728515
179	0x3fbe2a226f706ce0	0.11783042164499902
180	0x3fca53a19006ea88	0.20567721874779843
181	0x3fc94e6302fc6824	0.1977046742038634
182	0xbfd8cf315728451d	-0.3876460410256913
183	0xbfb255d699ae4e48	-0.0716222882459131
184	0xbfa9697a95b57c50	-0.049632864737525595
185	0xbfb7ac00729091e8	-0.09246828839292898
186	0x3fcc63a160e0098c	0.22179047804099772
187	0xbfd703fb781c0c7d	-0.3596180603928543
188	0x3fd6a3f9c463e888	0.3537582795976353
189	0x3fcff90b517617a8	0.24978772618868317
190	0xbfd06b2b1d121ab5	-0.2565410407918692
191	0x3fd3de1af330d7b2	0.31043123005963047
192	0xbfaf6a652a3245c0	-0.06135860576717844
193	0x3fa82238755bf480	0.04713608200652519
194	0xbfc3413d74835270	-0.1504284686003703
195	0xbfcf621fb218d3ca	-0.2451820010770958
196	0x3faab937b492e040	0.05219434813756196
197	0xbf843bf02daefd40	-0.009879948038245545
198	0xbfcca50b6aedbe8a	-0.22378676148536086
199	0xbfc98e1e35ac6510	-0.19964959736606902
200	0x3fd4b1aa82031412	0.3233438748978311
201	0xbfc293b9d1357fa6	-0.14513323512346438
202	0x3fd3d9449152e516	0.310135976712972
203	0x3fd8ad7f3a4ed456	0.38558941549428505
204	0x3fc9058eae7b7c44	0.19548209685942386
205	0xbfaea0a446f07618	-0.05981934896429325
206	0x3f90755dfc4be8d0	0.016072720073659508
207	0xbfb699c668e84eb4	-0.08828392087189735
208	0x3fcf85d6c45f6d18	0.24627194012178033
209	0x3fcb4904680c9c7c	0.21316580849199684
210	0xbfbbe4b18fda8100	-0.10895833742188543
211	0x3fd2dccb91102fce	0.29472626844721794
212	0xbfba24c3c13b020c	-0.10212348430196289
213	0xbfc844dbdfec4064	-0.1896014064191177
214	0x3f988aadf9c57620	0.023966520662147883
215	0xbfd8f7e932706c27	-0.39013128209779996
216	0xbfd84eebe86c3025	-0.37981698701401206
217	0xbfb980aefb6ba1c0	-0.09961980474657306
218	0x3fb4741bff014e00	0.07989668822965967
219	0x3fb64115852d452c	0.0869306039942514
220	0xbfce17bd4a92d85a	-0.23509946957864508
221	0xbfc986f605fe5ecd	-0.19943118374498284
222	0x3fcc3b7318b1bb08	0.2205642576768343
223	0xbfd7c247e064c6dc	-0.37123295701449677
224	0x3fbb0b3559734990	0.10563977655264112
225	0xbfb685a79e5487f8	-0.0879769097851123
226	0x3fd5e22386e55c6c	0.3419274155944041
227	0xbfa5d9f60ba706e8	-0.04267853634111224
228	0xbfd13524238e82a5	-0.26886847946483733
229	0xbfc6cc2c3416ba9d	-0.1781058554019709
230	0xbfd00ec8b8e40876	-0.25090234809625345
231	0xbfd63198f6257385	-0.34677719152187364
232	0x3fcf425733cd128c	0.24421205548619118
233	0x3fc991dc1ba802c4	0.1997637877502908
234	0x3fb3f2dead4570ec	0.0779246495271228
235	0x3fd13b9669070c50	0.2692619348201264
236	0xbfd55f7cad722570	-0.3339530652816256
237	0xbfd5a93e4666559a	-0.33845478892302483
238	0xbfccc19a4cc2712d	-0.22465828655266176
239	0xbf9487357fc7d900	-0.02004703133021568
240	0x3fa9a39617a1e2f0	0.05007618940812175
241	0x3fa9ca59c4c64858	0.05037193800957657
242	0xbfd6356290a9a92f	-0.34700836302967536
243	0xbfd2aa4effc6c0a4	-0.29164481142198384
244	0xbfd32d3ea81e86fd	-0.2996365205564045
245	0xbfd4ede3106e16d8	-0.32701946835036955
246	0xbfc09412f9676e5e	-0.12951886346751257
247	0xbfceb9c17523c344	-0.240043813893431
248	0x3fd2b41390ad0780	0.2922409928179306
249	0xbfca9e97886b67ad	-0.20796484147177577
250	0x3f9282953f1637b0	0.018076259589683452
251	0x3fcd49ccc1df9834	0.22881469217753792
252	0xbfd7f0240f87028a	-0.3740320350298495
253	0xbfbe8aa827c205bc	-0.11930323572780471
254	0xbfd25b4b3b2fec60	-0.2868221357345586
255	0xbfd92a2e57d53cb4	-0.3931995256179548
