assignment/assignment2/tmp/part4_weights_500iters.npy (npy, 62928 bytes, 1 tensors)

array f8 [785, 10]
00000000: 8e14 19fc 071d d03f 8656 51c6 8b9d c2bf
00000010: b423 0751 ed62 d23f 4abf 17b7 5029 c2bf
00000020: 0ae2 167e ec91 c5bf de9c 4517 93a9 d53f
00000030: d4d4 95d2 9c95 c7bf 6090 66bd a750 9c3f
00000040: 0746 e4bf 1c7f ccbf 6a88 f5e5 cff3 d2bf
00000050: 2868 0661 1ecd a03f d014 0aa8 df8f cdbf
00000060: 3cbc 7e47 1d25 c63f 78be f2f4 fa9c c43f
00000070: 88aa 55f0 2eb8 b73f c5c3 4994 6079 d9bf
00000080: 507f 9b3c fb0b d7bf 3763 0ed5 9133 cfbf
00000090: 18a0 e4ec dea1 c43f ae2b 57e5 c780 d83f
000000a0: b577 2b3b 62f1 d5bf e658 61e8 2556 d33f
000000b0: 1007 69a5 5f5c a33f 0012 360e 6752 ab3f
000000c0: 6499 ecbb 6825 c03f 4c92 7be5 215d d33f
000000d0: 5048 68ff b94e 91bf cdcc 841b bcbe ccbf
000000e0: aaf1 b37d 3ba2 d43f a0da 1998 51fc c23f
000000f0: 4c7c a1eb 0f78 d93f 52c0 31b0 d441 d63f
00000100: 3cbc da9a 0e97 bfbf c078 3437 590b a4bf
00000110: 242f 0d6f fdd0 d33f a06e 0fa0 2245 d6bf
00000120: 889e b345 ad6a cb3f fcac bbf0 2a1d bdbf
00000130: 2631 2b2b 415d d83f 9475 4c46 7c4a c53f
00000140: ad8f fa98 0895 d9bf 6052 63bc 7218 c73f
00000150: c83b 5cf8 99a9 d6bf b0d1 9fa8 c3e4 d43f
00000160: 34dc e6bf 8a28 cb3f 28df 0e85 2dc9 a3bf
00000170: a8b6 f1fe 6463 babf 1444 89a2 c0ad c53f
00000180: a4e8 31a9 e269 c4bf bac3 bb0c cce0 c4bf
00000190: a28c a0e5 f4cf d53f 2018 f9d7 f93d 9a3f
000001a0: ac66 0ad9 9a40 d03f 370f 38aa 2ebc d6bf
000001b0: 5ae5 dc43 b76d c3bf 7ccf 54b5 2d12 c03f
000001c0: 54be 1ab5 7259 b4bf 5778 b5a6 0f6f cabf
000001d0: 8d27 a32a 191b cabf dcb6 9ddf 60ad cf3f
000001e0: 9483 22ae 5f09 c73f 8c97 ec99 a1ee cc3f
000001f0: e28d c735 5763 d3bf c4ff 3215 33f1 d5bf
00000200: c884 9251 e9c5 b73f 34f5 d539 a964 b7bf
00000210: 60a6 3fb7 362d bbbf 94c5 5733 055b b3bf
00000220: d45b 877b b8e4 d3bf b4d1 669e 9b07 cfbf
00000230: f0a7 23e8 8d76 afbf bcc8 b849 5f81 ca3f
00000240: a0e9 5e08 7146 993f 926c f6a5 cb22 d33f
00000250: 40d1 b711 516e b2bf fe73 ce54 4456 d63f
00000260: 18ec ae3c 5172 b2bf a89c 762b f52c c03f
00000270: 00ac bf11 638d b73f 4896 2778 767f c03f
00000280: 2d74 299d 4fc7 cfbf 0f15 b54d 11bb d5bf
00000290: b0dc 2917 e477 9fbf ecc5 76b8 589a b53f
000002a0: 28ec 31e1 470a bf3f b43e 8244 8076 bfbf
000002b0: 006b 5357 5c26 6ebf 8df9 6006 0d2b c5bf
000002c0: 3412 9382 fa3b b7bf 480d 479f 8755 b1bf
000002d0: 4e82 5650 f504 d03f 7064 6bbc 9ec8 a0bf
000002e0: 0ae1 5f82 2651 c3bf dd5c 3404 c3c6 cabf
000002f0: 5873 bd59 f578 a43f c8f7 0b13 6a92 b4bf
00000300: 8de2 b44d f151 cfbf f61c 979d dd39 d73f
00000310: e21e b246 5954 d83f 6088 df0a a436 8f3f
00000320: 3cdd 07b1 8392 d0bf a895 e0a0 ca26 a3bf
00000330: fd50 e996 2746 c9bf f066 aaee f14f a43f
00000340: bc49 6bf4 673a c13f bc29 e22c 9686 d43f
00000350: c0e2 07f3 8260 b43f d091 4126 28ce 9d3f
00000360: b073 6a91 4f32 91bf 0c96 82d3 a50b b2bf
00000370: d633 668f c3a5 c0bf ce5d cf33 2891 d23f
00000380: f458 ec30 26e9 c3bf 4053 6fc2 f2c9 b93f
00000390: b090 7c1a f0b6 c7bf 00b0 6395 beec 543f
000003a0: 121f 2491 5f0a d03f 7460 abc4 73f5 c8bf
000003b0: d0ac 8fd9 aa49 acbf 78b8 2293 1720 bb3f
000003c0: e429 3b25 5f32 c03f 9caa fa8e 8b6e bb3f
000003d0: 1ce5 6847 5d2b d63f e74f f38e c212 d33f
000003e0: c79a 9e9e 900f a33f 0b62 427d 4c38 cabf
000003f0: 6ebb 9e2f 49f1 d8bf c122 ace3 b3ab bebf
00000400: 93cc c254 5170 d8bf db92 bc06 4ee0 b1bf
00000410: a78c 9d66 250b d03f 5ff2 7517 6fc3 babf
00000420: bb46 4c0f c0cc d2bf b718 5686 35fc d3bf
00000430: 194c b871 e0bf b93f 4c81 a3c8 60db b53f
00000440: 452f 0b39 5490 d6bf ee38 14f8 8d3e 9bbf
00000450: 8a2e 6c90 0106 d9bf 9713 9b06 b932 c5bf
00000460: 6d2e a54a d84f af3f 6eea cf2a 7a37 b93f
00000470: faa1 04d3 47e5 d13f 8a9c 149c 8b1b c83f
00000480: 8da2 3315 f6c7 d0bf f8ad 2921 9cc8 d6bf
00000490: 9cc8 c157 ca44 bbbf 2bf1 fe64 c451 d3bf
000004a0: bd0d c926 cd24 c4bf 2728 ca9a 7542 c33f
000004b0: df83 3a90 93d1 d53f 5c72 e684 ba6b cdbf
000004c0: e828 2d19 1df4 c03f afe5 c4ab fb26 d9bf
000004d0: 74ee ed33 9eb4 cc3f 8ef5 dc49 5c84 d6bf
000004e0: 0d60 1328 95f5 a03f e6fb b9e5 1315 d03f
000004f0: bd82 7947 e700 b2bf e346 7138 f429 d0bf
00000500: 687c dfbc 0a32 b0bf dc64 9c34 eff2 cc3f
00000510: a07b 5804 c9b6 96bf 9a5b ba73 625f d4bf
00000520: 0874 9f58 d73d bf3f 2acc 83c7 8828 c8bf
00000530: 88d4 0c77 43f1 d33f bdbc 8686 0c64 d0bf
00000540: fdfa 54f3 7a5b cdbf f237 96b2 55e3 d6bf
00000550: e01b 4aa8 0489 c5bf ccd2 4dc9 c535 c93f
00000560: 5e92 98c4 a731 c3bf d7e3 397a ee2f ccbf
00000570: a0e0 d817 57bf d33f a831 c77b 2e78 cb3f
00000580: 281e 60b8 8934 c03f 143d d175 42e2 cebf
00000590: 4ced 64f8 572c bbbf ec9d 6c06 5021 ca3f
000005a0: 2d80 815a fdb9 c5bf 3cee f8fa 6960 ce3f
000005b0: 40c7 a515 8b66 bfbf e8eb cdd9 c189 bbbf
000005c0: 3ef1 f854 ef4e d03f f051 4f18 cd69 a1bf
000005d0: 4e02 5b8e b7c9 d73f 876f a729 6ac9 d4bf
000005e0: 4cf7 9569 b1ba b3bf 16aa fd6a d303 d03f
000005f0: 6f91 337a 4af2 d3bf c097 ef1d 29ba b13f
00000600: 980e 986f a322 c93f 6741 bc7f 7941 c9bf
00000610: f430 cca4 2a95 c23f 7a88 b274 6e53 c1bf
00000620: 86f3 6ffa 0f7c c2bf 6839 8530 2687 b33f
00000630: dcc6 883a d26d d1bf dcad 794d fc6c bdbf
00000640: 7d4a 79d2 5b46 c6bf 40c5 4eca 63e3 7cbf
00000650: d009 d4f8 fe3b 9bbf c8d6 6ff3 7d13 c33f
00000660: d202 6dc8 4d6b d1bf 183d c9c9 7111 a6bf
00000670: 9e9f dd8c e285 d93f 5099 5651 19ba 9ebf
00000680: a0c8 85d8 ce49 88bf b00c 50a1 a58a a63f
00000690: a0d3 7404 99e2 883f 30bc 1ccd 1947 a03f
000006a0: 9413 aa0f b4af c3bf 4e45 5b0b dd61 d03f
000006b0: 80bf 9411 e2e0 d53f ceb4 d4ae 2a99 d23f
000006c0: 8f52 4a9f a371 d7bf e8c2 2db9 b861 b23f
000006d0: 90fb 233b 45bb c43f f08f f310 7b11 acbf
000006e0: ec90 8b3a 1bc1 b3bf c070 7394 e5ff c5bf
000006f0: f2d5 26fd 9fb1 d2bf c743 ad0e fe77 c6bf
00000700: fcc7 9558 b32f d73f d072 d4e9 cebe 983f
00000710: 724a a134 a68b d8bf 37e3 7d25 9b8e d5bf
00000720: dc65 a7cf 4b6a ce3f 7818 f5fa f84f d5bf
00000730: 3419 c33b 3797 bebf 9dce a306 5f15 d7bf
00000740: 10ba 8e77 7274 d3bf d0cd f715 68d7 d33f
00000750: ccf2 f3c8 bde7 b2bf 4859 e909 e7d1 c83f
00000760: 7029 66a0 71f8 d43f 3069 0249 189d c93f
00000770: 2444 ff53 f807 c13f 6021 59ca a62e c73f
00000780: 4454 c383 507b d43f 2c3a fd31 9fef d73f
00000790: 40ab ed21 8d16 aabf 5498 5eea ab42 b93f
000007a0: 64d0 ed4e 0973 c33f 80a4 71c8 ea12 bf3f
000007b0: d2b7 cd38 273e d5bf 7464 46bb 1397 b93f
000007c0: 8083 5db2 48b6 99bf 54d4 946f d561 cb3f
000007d0: 289b 7b73 e113 d23f a0a0 4f67 524b bdbf
000007e0: ba0a 41f7 439b c9bf d02a 576f c067 c53f
000007f0: 2c2f 56ab a85e c73f b06c 9af7 e944 983f
0.2517719232458341 -0.14543292220576037 0.28728802597884884 -0.1418858427055006 -0.16851574093540506 0.3384750106110469 -0.1842533138512069 0.02765142529973763
-0.22262915963851546 -0.296131109780737 0.0328149312437776 -0.23095317559287887 0.17300764075250352 0.1610406585727906 0.09265416495842704 -0.3980332801939393
-0.3601062862271549 -0.24376128104338488 0.1611899048523362 0.3828601588872357 -0.3428578927831681 0.30213306134591134 0.03781412977379095 0.05336305664517127
0.1261416356657704 0.30255935106678034 -0.016901880468204233 -0.2245707640046021 0.3224018790786213 0.14832515646749744 0.3979530144769725 0.34776799398878666
-0.12339869766832207 -0.03914908217324031 0.3096307358252821 -0.34796968108069315 0.21419301894569664 -0.11372631432793762 0.38069180694289384 0.16633561546852305
-0.3997212881024506 0.18043359945899606 -0.35410165075239464 0.3264626642915358 0.21217474336819608 -0.03864423989528937 -0.10307913994048568 0.16936500488603257
-0.15948136579010452 -0.16311026212454555 0.3408176653339955 0.025627044493624962 0.2539431685960192 -0.3552357351584194 -0.15178576291672635 0.12555476526324216
-0.07948986932273644 -0.2065143169410841 -0.20395197469616413 0.24747858923676957 0.17997356417347687 0.22603244796590294 -0.30293827297120235 -0.34284665174709184
0.09286363832008526 -0.09137971555715724 -0.10615865682452741 -0.07560760978210218 -0.31083499968866346 -0.24241967424826572 -0.0614513727067133 0.20707312679002665
0.02468277562705057 0.2989987488487681 -0.07199579889840368 0.34901531488304716 -0.07205684405828128 0.12637199995262915 0.09200114425009076 0.12888985506940487
-0.24826998876497566 -0.3395426997052064 -0.030730785287656104 0.0843863916732272 0.12125062225270311 -0.1229019324548471 -0.0036804011857446417 -0.16537630855050303
-0.09075895011762541 -0.06771133078205083 0.25030262799740377 -0.03278060960810414 -0.15091401449149827 -0.20919072823810483 0.03998533935985077 -0.08035910573013816
-0.2446881894518537 0.362906841179622 0.38014823821911936 0.015240937787840803 -0.2589425305190678 -0.037405330789890556 -0.19745344990463556 0.03967243231200068
0.13459491190458361 0.3207145155253348 0.07959764893883925 0.029106738409966415 -0.016793483019330757 -0.07049023069210864 -0.13005871297755672 0.29010968265126
-0.15555264843778327 0.10073773619599269 -0.1852703217820184 0.0012771474044326325 0.25063313650069674 -0.19499060729026818 -0.05524953752304784 0.10595843641451264
0.12653722112584298 0.10715553513242998 0.3463967511521149 0.29802001914981563 0.03722812591813845 -0.2048431026094167 -0.3897269215621496 -0.11980747517021496
-0.38185532834467856 -0.06982886948078308 0.25068030377424083 -0.10454458544513433 -0.29374696248951765 -0.3122686206701348 0.1005840566288473 0.08537869356542166
-0.3525591427867208 -0.026605814234295026 -0.3909915838600929 -0.16561043570086717 0.06115604315945409 0.0985027651330854 0.2796191750262832 0.18834061738127544
-0.26220466680982996 -0.3559942554336142 -0.10651840822700581 -0.3018656717574852 -0.15737308877770131 0.15046567972268685 0.34091652951070545 -0.2298501156737015
0.13244975785557433 -0.3930043389733226 0.22426202331176948 -0.35182864392467017 0.03312364687161571 0.2512864821837283 -0.07032628531443215 -0.2525606681057139
-0.06326357947499306 0.22616376942531857 -0.02218164528869304 -0.31832181264456383 0.12203737176555773 -0.18873700849471337 0.3116005575751122 -0.2561065019353455
-0.2293542564529715 -0.35762541236988377 -0.16824396340618275 0.19695350961014524 -0.14995286082661868 -0.22021275489876643 0.3085534794695466 0.2146051506409894
0.12660333159168258 -0.24127989533233374 -0.1061453801566376 0.20414161981282974 -0.16973845404845758 0.2373173213435268 -0.1226584365702168 -0.10757075850953834
0.25481780336464854 -0.03401032373190904 0.37168682958512 -0.3247933775689877 -0.07706745937136111 0.25023351143195904 -0.3116632645963113 0.06924683552605782
0.19636958073543975 -0.19731062638357885 0.14517720267065892 -0.13535862634768475 -0.14441108444580325 0.0762809627969766 -0.27232795444716174 -0.11494423762785949
-0.17402217652359644 -0.007052793317528228 -0.026596054017326953 0.1490323485046956 -0.2721743066104355 -0.04310184086045349 0.398796689571549 -0.030006785954946935
-0.011859527571435102 0.04402654260777561 0.01215095085954393 0.03179245594798663 -0.15379954113828076 0.2559731112388207 0.34185077397250296 0.29059855531052114
-0.3663109832353166 0.07180361290898996 0.16196504008982204 -0.054820867366089376 -0.0771653192455834 -0.17187185047703757 -0.29209136697622207 -0.17553687779084567
0.36228641177069654 0.02416537573036487 -0.38352351321842726 -0.33682898198417227 0.23761890067434777 -0.33300613887366337 -0.11949486931834913 -0.3606793942301268
-0.30398236918964106 0.31002237458525617 -0.07384859233929858 0.19390571578942173 0.3276638094327131 0.20010665478623357 0.1330557260648969 0.18111119156152267
0.32002652041893875 0.3740003574538686 -0.05095330275692911 0.09867357704078589 0.15194813112214256 0.1213824023594885 -0.33191853091454704 0.0999615032400401
-0.025109420668175897 0.21392314861592132 0.28246341970082023 -0.11443057081453611 -0.2000508267684234 0.16722875057742792 0.18257625928924293 0.023700385797024992
