assignment/assignment2/tmp/part5_weight_5e-5_moment.npy (npy, 62848 bytes, 1 tensors)

array f8 [784, 10]
-0.34381774371914137 -0.20827760795105582 0.3900214646033997 -0.17722681704036303 -0.24637868327373164 -0.28296537239202035 0.3418639227178787 0.053957242565997265
0.08547662664913752 -0.1417246584293423 0.14785377678015543 0.16761383370458582 -0.3163061701160696 0.08699040063097041 -0.15770097870393826 -0.05898448542612761
0.10052462348825042 -0.29341428158774224 0.24450164767829896 0.1163035106139747 0.2676701001240317 -0.19278830399402294 0.15605527050082435 -0.198609728863367
0.27159353845713907 0.24181614884768954 -0.007163498295947146 -0.1702847561474652 0.1948936886523972 -0.07182237801338615 0.2762935156037145 0.3011258182213601
-0.07977948027823462 0.013747842438717128 0.1645777772603736 -0.3667265176785196 -0.03366898759432979 0.17188738696590478 -0.027131886346760836 0.21233008052185742
-0.32093493045005234 0.15789381458666307 0.3154911271558848 0.33049776275890463 0.2009684375555011 -0.21444034555630306 -0.1752900582563024 0.31175673985621455
-0.21902382858705663 0.3842966677735863 -0.2056746277562468 0.3027211054795945 0.37430180789138257 -0.2534225576115603 0.10238867794840201 -0.105181315615346
-0.0032499929803485594 -0.3720203871709757 -0.28029524456198396 -0.018484108080404293 0.313957028970157 -0.3397573470932258 0.18737938870185755 -0.3531612567608373
-0.17168165957976003 0.3191497264438464 -0.1379900586777958 -0.14366502863258068 -0.01469858064243218 -0.32668411676065673 -0.12436039535215881 0.2522818959125859
0.18019044653544536 0.0929536457586253 0.10302488075700389 0.16323445573304607 -0.024650289635779477 -0.19974231265415057 -0.07221847595492764 0.32487749331367244
0.35265559078188247 0.15151061183863967 -0.2073540184736481 -0.3306293316647391 0.12200134819653263 0.3540006377415249 -0.12856465265751887 0.29959459095432384
-0.25231096374880735 -0.2711477287301325 -0.01367223900098924 -0.21808072738430273 -0.39061607024858214 -0.3820962709067476 -0.3366348655921118 -0.16701734608586716
-0.25396998282903704 -0.2546501907444809 -0.3775359595056636 -0.17681224775650659 0.2673475979536254 0.23825128688035124 0.3933197179242235 0.30806173994234065
0.11775874638403339 -0.1526123825522949 0.30910942553140885 0.3456055035636748 0.12940947321807628 -0.03399190128787122 -0.23559808868568652 -0.3736319996766695
0.17854215606218626 -0.08501158040185797 -0.23766637169045268 -0.1863084343590666 -0.07869861238523496 -0.044382297406904914 0.35025232545121865 0.2346309896065406
0.1867302515976234 0.21333805908116252 -0.1023473364448423 -0.3429170323846128 0.17538909761771956 0.3693491301799587 -0.14908876228397921 -0.2803316444591262
0.10892204489904705 -0.04690746430025506 0.18034488923167644 0.029725450177788673 0.27389979495023375 -0.18050220105720935 0.04845440550156758 0.1433486533771741
-0.2336588399220356 -0.2808051742103482 0.11061289544725346 -0.3734673184716006 -0.3140215637547028 0.3136976752091128 0.1815950721718578 -0.22098300622820755
0.2825001345067989 -0.25890953741125183 0.25572963493957973 -0.03039591691686035 0.08772664868563321 0.1076950184684328 0.3865161026600395 0.2877233022625265
0.23025329728220412 -0.21022113197529974 0.04306047953921864 0.1688594937383314 -0.11114450306426618 0.026022290280749524 0.3302403923046379 0.398814122511619
-0.30816677334668263 0.198585200286702 -0.1396840684646164 -0.11951091830723692 -0.002206021406298997 -0.23256024643595277 -0.37407528905602216 -0.24615360806055586
-0.2535040729117055 -0.3552653982904473 -0.14038048880638565 -0.31218444779327187 0.34037042641171555 0.3282062515225299 0.2993105892783564 0.24753193768027215
0.32089023447600906 -0.07324787264747129 0.31845478805263394 0.3079130116641272 -0.19416884850135815 -0.2988824161681238 0.24854552629555704 -0.31643011702435253
0.1787402517894494 0.3415115684800465 0.24486131652591547 0.08421354797663616 0.11849056482419595 0.30742205278307944 -0.19766593080496808 -0.2219964184404641
-0.12912446916790693 -0.13073570370998822 -0.17962832364306786 0.11323746504824261 0.2736777053538274 -0.09634397114798271 0.05264094015127696 -0.1849728409446046
0.02245652674662313 -0.19710166669247917 -0.12032939000824305 0.11323580282323253 -0.26205952239935937 -0.09240479520103462 -0.12682531565131833 0.3376620086813754
0.15060566516711105 -0.011386525812291493 -0.011676611674384219 -0.11503328670841306 -0.05304480989148591 0.19508412275322318 0.1547000374239882 -0.09103773028083112
0.34620767308388867 0.3851548046979659 0.23527672793406262 0.22134896807570503 0.04018581764131124 0.26875539150674166 0.11465551442170396 -0.20831768861950986
0.15661764045767068 0.27697267041898255 -0.16030073261157637 -0.01043138043067049 -0.246240349863976 -0.013771177157639092 0.04276511816787831 0.3231012262839532
-0.12955795123870822 0.14725119332722614 -0.10807613031004293 -0.3480838979348998 -0.33673510357449143 -0.2814929808308902 0.3935549369863607 -0.3668309221482539
0.38978379563144594 0.19175088648405136 -0.3815551948682052 -0.29307260130649715 0.28722076806509633 0.232721894934784 0.3080512006538001 -0.1188229390137906
0.181510033094901 -0.23639138677092558 -0.15599307740884197 -0.3850632416608936 0.22465395620257134 0.19433757095796855 -0.245377065429149 -0.013369138718248741
00000000: e7b9 4323 1c01 d6bf 4ac7 5135 d7a8 cabf
00000010: 786a cd96 1cf6 d83f f0cd 944b 5eaf c6bf
00000020: dacd 8b31 5689 cfbf 82bf 14cb 1a1c d2bf
00000030: 1a5b f037 19e1 d53f 9816 68a0 48a0 ab3f
00000040: 6ccb 07d4 cbe1 b53f 66d2 7e9a 0824 c2bf
00000050: 6430 ee5f dfec c23f 0827 0fbf 5e74 c53f
00000060: 5ffa 0a3c 5c3e d4bf 08a5 c6bd 0045 b63f
00000070: 5751 0ab1 8b2f c4bf 98d2 c0e7 3633 aebf
00000080: c022 5352 fbbb b93f e750 e6b1 4cc7 d2bf
00000090: 1c57 4c7a d44b cf3f 103c 7f1e 11c6 bd3f
000000a0: b295 89c5 8121 d13f 3d52 5a82 49ad c8bf
000000b0: 54b1 957d 9ef9 c33f f75a 1129 0b6c c9bf
000000c0: f89c 5edd c961 d13f f805 79e1 d4f3 ce3f
000000d0: c028 7fee 7857 7dbf c091 5411 e4cb c5bf
000000e0: acbb 7ac1 46f2 c83f cc3d b08c f362 b2bf
000000f0: 3459 67ff caae d13f a47c 4f39 a545 d33f
00000100: 54d8 af92 6d6c b4bf 609d 512d d427 8c3f
00000110: 98a7 7d75 e210 c53f 5255 0080 7278 d7bf
00000120: b0d2 36c1 0f3d a1bf c885 cee8 6700 c63f
00000130: b00a 2712 76c8 9bbf c432 e6cf a12d cb3f
00000140: 1f54 9ba9 328a d4bf d0f8 f150 dd35 c43f
00000150: 5203 54b2 0131 d43f a6d7 9c16 e026 d53f
00000160: cc1f 6a71 55b9 c93f b7ba 8dff c772 cbbf
00000170: 202b c395 e76f c6bf 825c 7f8a d2f3 d33f
00000180: 3dbe 690a f908 ccbf 3a28 030d 5198 d83f
00000190: 343f ead3 8b53 cabf 3a01 f657 c85f d33f
000001a0: d689 ee91 8ff4 d73f 34a9 403f 1338 d0bf
000001b0: 50e1 44f7 2436 ba3f acd9 b7a6 29ed babf
000001c0: 00ad 02b2 ba9f 6abf e70d 1699 2ecf d7bf
000001d0: 048e 2777 5bf0 d1bf 30e4 cd7e 7fed 92bf
000001e0: 6cac f138 df17 d43f 00d5 9599 95be d5bf
000001f0: 28a0 353d 0cfc c73f ac21 00ac 319a d6bf
00000200: dde9 9b24 aaf9 c5bf 7aa2 66f9 f26c d43f
00000210: 50dd 9882 a8a9 c1bf b025 c79b 9d63 c2bf
00000220: 6042 4119 4a1a 8ebf c504 677f 64e8 d4bf
00000230: e084 f436 15d6 bfbf d050 14f7 6225 d03f
00000240: 98ef 7505 7b10 c73f a0c7 9364 cfcb b73f
00000250: c88f 86ad d65f ba3f e015 7adc dde4 c43f
00000260: d057 4aef ec3d 99bf cd0d 3df6 2791 c9bf
00000270: 54b4 64f8 e87c b2bf 9046 3ff8 caca d43f
00000280: 4039 4ac1 e891 d63f 2c05 6c21 b364 c33f
00000290: 84ed 0494 938a cabf 0d4c a6ed 0729 d5bf
000002a0: a86f 92f8 7a3b bf3f 463b 774a f2a7 d63f
000002b0: 5af6 4a79 ce74 c0bf b444 8dca 8e2c d33f
000002c0: ae4b 6ee2 dc25 d0bf 54f5 d100 7c5a d1bf
000002d0: c08f fada 3000 8cbf c471 00bc 11ea cbbf
000002e0: e89e c08b daff d8bf 52f4 ddea 4374 d8bf
000002f0: 9f55 9af6 6c8b d5bf 84d9 a60b d360 c5bf
00000300: 3aa6 9a50 0b41 d0bf b8bb 4a50 304c d0bf
00000310: f502 c995 8c29 d8bf b7be d2a2 c8a1 c6bf
00000320: a2ff 7719 391c d13f 58c5 b0a6 047f ce3f
00000330: a6d0 5677 262c d93f a0e0 8c96 48b7 d33f
00000340: d891 89ec 6f25 be3f 776c 0374 cd88 c3bf
00000350: 64bc 62e6 72c8 d33f fae8 c78b 661e d63f
00000360: 24d2 a157 7d90 c03f f074 b8f0 6267 a1bf
00000370: 57db f302 1428 cebf 986c d630 96e9 d7bf
00000380: 1849 9f28 78da c63f 0875 9ba5 51c3 b5bf
00000390: 247e e206 da6b cebf 8744 456c f4d8 c7bf
000003a0: f466 6f9e 9725 b4bf f09b c4c7 46b9 a6bf
000003b0: b84c caba 886a d63f 987d 7e65 6308 ce3f
000003c0: fe8f e4e1 c6e6 c73f 6373 5f59 a94e cb3f
000003d0: a901 dd5e 6f33 babf 8a54 d547 5af2 d5bf
000003e0: 4be9 2b63 2673 c63f 3b74 bb88 6aa3 d73f
000003f0: cafb 1a2f 5715 c3bf 1c18 3f23 f4f0 d1bf
00000400: 4ca4 a7ac 50e2 bb3f 713c 3752 4104 a8bf
00000410: fb19 a094 8a15 c73f 546b 7d31 5970 9e3f
00000420: a04f 6c01 9387 d13f 13c8 3235 b21a c7bf
00000430: d5e4 f30d 04cf a83f fd1d 17a9 3f59 c23f
00000440: ef76 f169 88e8 cdbf 5dfc f143 b6f8 d1bf
00000450: e539 7670 2051 bc3f 3b76 bd77 e3e6 d7bf
00000460: b02c a4e6 ed18 d4bf fdad f669 9f13 d43f
00000470: c9e3 0be0 813e c73f bc67 5cd0 2b49 ccbf
00000480: 9aa0 b471 7b14 d23f b571 f34e f991 d0bf
00000490: b1be abd4 df5d d03f 3501 5c74 1b20 9fbf
000004a0: 82ac 17ef 4075 b63f ca97 4396 e691 bb3f
000004b0: 0958 1309 aebc d83f 6cf0 60ff 0e6a d23f
000004c0: 14c6 cfa6 f078 cd3f 9e89 61ab 86e8 cabf
000004d0: 7ef6 bdee 050c a63f ffd4 9c19 309d c53f
000004e0: c28b ca55 f773 bcbf 9c2f e456 96a5 9a3f
000004f0: 7710 3199 a822 d53f abb3 57ab 2b86 d93f
00000500: e038 4f21 01b9 d3bf 34ba 5966 3d6b c93f
00000510: caf3 e9e4 2ae1 c1bf a0fe a47d 4498 bebf
00000520: 0027 6bb9 5c12 62bf 1d64 65be 88c4 cdbf
00000530: f030 2f7b d9f0 d7bf 74cc 3420 f681 cfbf
00000540: b0bf a325 6939 d0bf 65b4 c314 abbc d6bf
00000550: f4bf 35e4 fcf7 c1bf 0de2 657a d4fa d3bf
00000560: 6cb0 7d0a a1c8 d53f f472 28cb 5401 d53f
00000570: 8602 139a e727 d33f 14b1 8664 20af cf3f
00000580: e688 ab31 7789 d43f 14c0 8561 5fc0 b2bf
00000590: 0234 fc30 9061 d43f 0a0f c7c6 d8b4 d33f
000005a0: 578f 1b5b 86da c8bf cfa8 b2b6 e320 d3bf
000005b0: d4d5 80fd 56d0 cf3f f2b2 051b 6440 d4bf
000005c0: 080e f5e7 f5e0 c63f 2cf5 7456 53db d53f
000005d0: 5064 4499 9d57 cf3f 6095 70e2 048f b53f
000005e0: 08f3 cdcc 6555 be3f d670 b18b cdac d33f
000005f0: 449d 2b02 1e4d c9bf 57f5 83ee 606a ccbf
00000600: 3642 188e 2687 c0bf 144e ed91 f2bb c0bf
00000610: 5abb bd97 0ffe c6bf d06b 1069 21fd bc3f
00000620: 96e5 887e ef83 d13f 8c52 3f9d ffa9 b8bf
00000630: 70c7 c2d8 c0f3 aa3f 3aad 40a7 30ad c7bf
00000640: e07f d5ff d7fe 963f 8734 379e a03a c9bf
00000650: a841 d52a e8cd bebf d0b1 dc85 05fd bc3f
00000660: 54e1 934d 95c5 d0bf 28cc 6135 d7a7 b7bf
00000670: 367e 83db cf3b c0bf ded7 181d 419c d53f
00000680: b816 3ee3 0b47 c33f 40b0 d49f d151 87bf
00000690: 6015 284a e8e9 87bf c830 5d4c d272 bdbf
000006a0: 58b6 6977 b028 abbf 20d3 983b 84f8 c83f
000006b0: 5887 b6f8 35cd c33f ec1b 42aa 3f4e b7bf
000006c0: 7e40 613a 4428 d63f 4ecd 8456 60a6 d83f
000006d0: d04b fe3d 8c1d ce3f 68ba 71b9 2955 cc3f
000006e0: 809d 1049 3c93 a43f d649 49d0 4933 d13f
000006f0: 684d bf54 105a bd3f 1d49 e66d 27aa cabf
00000700: 6006 dffd 0b0c c43f d475 5594 ebb9 d13f
00000710: 47b8 0b02 bc84 c4bf c037 6a2e 0c5d 85bf
00000720: 3789 cfc4 cd84 cfbf 40e6 271c 1034 8cbf
00000730: 0098 e13f 4fe5 a53f 08f9 0bc4 b0ad d43f
00000740: dae5 c0dd 5a95 c0bf a496 d189 20d9 c23f
00000750: 28ed 2895 e0aa bbbf 1241 79af 0147 d6bf
00000760: 9420 5164 118d d5bf fd38 ae22 fb03 d2bf
00000770: e449 e20b 0130 d93f 0f73 7267 287a d7bf
00000780: 16dc afbb 37f2 d83f 00c9 3605 4b8b c83f
00000790: 78fb e47a 666b d8bf 6ac3 7d95 b3c1 d2bf
000007a0: ee94 6437 d361 d23f 086e e7bf d4c9 cd3f
000007b0: 804d 1362 1cb7 d33f 682e 141d 2e6b bebf
000007c0: d4ec 0484 b83b c73f fa5c 9ead 1242 cebf
000007d0: adca efc6 94f7 c3bf 6fd1 744b e0a4 d8bf
000007e0: c04d 67f9 75c1 cc3f d403 d3b3 0de0 c83f
000007f0: 6a73 9a03 8468 cfbf c084 906c 4761 8bbf
