assignment/assignment2/tmp/part5_weight_1e-5_moment.npy (npy, 62848 bytes, 1 tensors)

array f8 [784, 10]
0	0x3fc7264375d9f248	0.18085520986996273
1	0x3fd7201bf2feba26	0.36133478860839074
2	0xbfcc1103f750910d	-0.21926927162088142
3	0x3fd1061a4d719306	0.2659974819455758
4	0x3fc62065b0c72bb8	0.17286368495692073
5	0x3fc3ea2c9076b660	0.1555839257611522
6	0xbfca6b2aae78da90	-0.20639546889443183
7	0x3fb5620812795634	0.0835270924665899
8	0xbfc985de235448c4	-0.19939781880436247
9	0xbf9e290c33d27d30	-0.02945345941827532
10	0xbfd96f6ee577539f	-0.39742634209442856
11	0x3fbc3d111e9c6290	0.11030680653892433
12	0x3fc0499bc10db8f8	0.12724635054059497
13	0xbfd97f78bd1ea944	-0.39840525120475356
14	0x3fd569857fa98270	0.33456551997190953
15	0x3f9e035da5a64fa0	0.029309714541866705
16	0xbfd7e497ceb7d77c	-0.37332720935170705
17	0xbfd69d71ce45d76a	-0.3533596529372206
18	0xbfd0b9877f6b8d42	-0.2613238090836668
19	0x3fb33d19440ed7a0	0.07515104209491463
20	0x3fbdefca777256a8	0.11694016853501898
21	0x3fb4389c28b908e0	0.07898879999359876
22	0x3f9d58c6724afca0	0.028658962942014754
23	0x3fac5a9e271ee6f0	0.055378858828999955
24	0x3fd67abc8e43997c	0.3512412442491024
25	0xbfc29c71f59cba56	-0.14539932720932097
26	0xbfa9f9dc80217b50	-0.050734415665593446
27	0x3fd1d33cb71a7746	0.2785178936118097
28	0x3fd895eaada65e58	0.38415018995281036
29	0x3fc287d172264fb0	0.14476984094346568
30	0x3fb18943ac819354	0.06850073777748139
31	0xbfd1e2a83ff62c48	-0.2794590592026833
32	0xbfa4c22aef8a2000	-0.04054388212267668
33	0xbfb8e21d06584508	-0.09720021634008813
34	0xbfd4cf6120b8b935	-0.3251574344202653
35	0x3fd1ae3210fb54ae	0.2762570539319523
36	0xbfd96b2986e6264c	-0.3971656625149975
37	0x3fce58050225241c	0.2370611439203295
38	0x3fd8ccf4efc1387a	0.3875095692973286
39	0xbfae44656d5944b0	-0.059115571592550764
40	0xbf93c40496e83a60	-0.019302436552658953
41	0x3fc8549912c02c38	0.1900817243152646
42	0xbfb34be0640dd92c	-0.07537653391577653
43	0xbfbd310ff575e1e8	-0.11402988188445529
44	0xbfc2e5fb18eb6dc4	-0.14764345852641558
45	0x3fcc4db512692914	0.22112143897022263
46	0xbfd46e5c36c8a47c	-0.3192358527181296
47	0xbf96416bc0e45b80	-0.02173393597430673
48	0x3fc275a8f7c7556c	0.14421569918219335
49	0xbfd8946d645097fd	-0.3840592841755777
50	0xbfd96eb052b029dc	-0.3973809058667521
51	0x3f96341906781780	0.021683112163394025
52	0x3fd8e284352a14b0	0.38882546607812696
53	0xbfd2ca1f622b8297	-0.29358658396635334
54	0xbfd8b5efa4687cad	-0.38610449843867906
55	0xbfb6e117d2aa28cc	-0.08937214749508654
56	0x3fd5ea035f9c6ce8	0.34240803086295424
57	0xbfaf54a1a5be25d8	-0.06119256160952674
58	0xbfcf70eea799701a	-0.24563391860544997
59	0x3fd20a1136d1c63e	0.2818644557329185
60	0x3fd58d2abaf204d2	0.3367411447180305
61	0xbfb953e6a40e62c8	-0.09893647675779527
62	0xbfc29ceb46242f24	-0.14541378903265312
63	0xbfd76e265124125f	-0.3660980026618627
64	0x3fc1240a0ed7a42c	0.13391233181690276
65	0x3fcf5c312efa5e70	0.24500098031852557
66	0x3fa50fe890e7cbf0	0.04113699692597794
67	0xbfaf9320118a61d8	-0.06166935171239957
68	0x3fd583fb3622c5fe	0.33618049895002844
69	0x3fcf592e3592794c	0.24490907302692688
70	0xbfd005d5a59815e4	-0.2503561131601073
71	0xbfd12b8ea5497bec	-0.2682835210925407
72	0xbfa605d50e09d6a8	-0.04301324650161337
73	0xbfcac672c70d0d20	-0.20918116301809508
74	0xbfb462514b991028	-0.07962520690586017
75	0x3f89fbb4202567a0	0.01268711779691839
76	0x3fca79319ef03aa0	0.2068235422197704
77	0xbfba9c60be44b028	-0.1039486374399422
78	0xbfd37429579781c0	-0.3039649348629858
79	0xbfc7c38bc557add4	-0.18565508972038336
80	0xbfc26ef2aa085aaa	-0.14401086141943625
81	0xbf86f38e7d052600	-0.011206734838782317
82	0x3fd6b75ba2a72e76	0.35494128116690804
83	0xbfb1c4aa6da689b8	-0.06940713097586737
84	0xbfcdb37e434e93fa	-0.23204019819709726
85	0x3fbc5cab26ff8a10	0.1107890100679827
86	0xbfd7a08cccca602f	-0.369174194327118
87	0x3fc531b60fe6ac44	0.16557956482333414
88	0x3fd1955efa183d40	0.2747418825465111
89	0x3fc52d56bd26b6bc	0.16544613109492967
90	0x3fa6bf72a0a6de18	0.04442938052255502
91	0xbf516df27b96ed00	-0.0010638111110513049
92	0xbf9c6bb64b538fe0	-0.027754639003333526
93	0xbfb38dd19e653918	-0.07638273350787406
94	0x3faecb41c98eb770	0.06014447770517861
95	0xbfab6802aecf6318	-0.0535279119864695
96	0x3fb0a1c79aa0d878	0.06496856236558013
97	0x3fd021575b9a22a6	0.25203498788372725
98	0x3fb43838dc540120	0.07898288134675058
99	0x3fc48593b50bdc50	0.16032644596245627
100	0xbf9d712603e180d0	-0.02875193976103746
101	0x3fd669d63bd72bde	0.35020976871299847
102	0x3fc66af9bc96f278	0.1751396342132414
103	0x3fc9ca6873e39304	0.20148950251236653
104	0x3f891c1c22009fa0	0.012260646617576587
105	0xbfc629352db05ae7	-0.17313256007101716
106	0x3fd45cb48617c00e	0.31815827460286605
107	0x3fd69576616879c0	0.3528724623919537
108	0xbf9371bfef5cd330	-0.01898860834554056
109	0x3fd320740489ff3c	0.2988557857824963
110	0xbfd326f23c14ca65	-0.29925208918863283
111	0xbfced6925073ef70	-0.24092320373881249
112	0x3facaf5583b32710	0.05602519257224803
113	0x3fd871222f5f7134	0.38190512300731716
114	0x3fd04d20e729b24a	0.25470755171298676
115	0x3fd11e499da9510c	0.2674736060773888
116	0x3fd883d385933d5a	0.3830460361904976
117	0x3fc64ab672b56c18	0.17415505028734013
118	0xbfd2474c8a972188	-0.2856017449780883
119	0xbfd166b7ecdcb034	-0.27189443713246253
120	0xbfc87ac418f39067	-0.19124652117091331
121	0xbfca27c62327cfec	-0.20433880535676907
122	0xbfca80af7940fed8	-0.20705216808891325
123	0xbfb35cf9de738f25	-0.0756374519438024
124	0x3f9d6eabebfe6c5f	0.02874249103443238
125	0xbfc9e47001172c8e	-0.2022838597607443
126	0x3fd5c931697d30c3	0.3404048471609366
127	0x3fd76762c286a150	0.365685167280863
128	0xbfaff6a5c0bdf2ff	-0.06242864587600216
129	0x3fd03ae747f6b7dd	0.2535951807757309
130	0x3fd994798d3cfd30	0.39968718331143105
131	0x3fd7eb6976b1261b	0.37374340621008323
132	0x3fa9722e8e553a68	0.04969926345312531
133	0xbfc5670d88b5c29f	-0.16720742392819418
134	0x3fc4ba3e10c66ee6	0.16193366831873063
135	0xbfc84f9ea317966e	-0.18992979968531948
136	0xbfd8da9bcba8063f	-0.3883428086120126
137	0xbfca083f479f53dc	-0.20337668416200827
138	0x3fc9db3e7cbd6130	0.20200329867180633
139	0x3fb5278f4ab87952	0.08263488363488605
140	0xbfd799310a700259	-0.3687250711373387
141	0xbf99621ce26b87bd	-0.024788333243925587
142	0xbfcaad9df07d1256	-0.2084233688602974
143	0xbfc9f2dfa4132d47	-0.20272441398115346
144	0xbfc5b4a42ef41312	-0.16957523625037446
145	0xbfc31f44af9e5ad8	-0.14939173293233554
146	0xbfd362e456f13583	-0.3029108857197899
147	0x3fd6b00efc0d261b	0.35449576010123146
148	0x3fd400d5d4b65622	0.3125509812610706
149	0xbfd50f2de95a9bbc	-0.32905147350760067
150	0xbfa3e7d288737e2c	-0.038878039509424006
151	0xbfd06badfb551645	-0.25657224220444547
152	0xbfd95cac1b356055	-0.3962812677104968
153	0xbf9de1a0704436d9	-0.029181010105324787
154	0xbfa0c95e5694c855	-0.03278631979846184
155	0xbfd678b85d7604bc	-0.3511181748109029
156	0x3fd7fcf7befcf072	0.37481492663551486
157	0xbfc9e3accdc493e9	-0.20226059005031452
158	0xbfc00b4b4b1117e5	-0.12534466901178046
159	0xbfc548042e886e81	-0.16626026413074516
160	0xbfa47d2dfec90d70	-0.04001754508183353
161	0x3fa843dc24a9beb0	0.04739273021266166
162	0x3fa61d90aa634f50	0.043194313811595664
163	0xbfd61436e1505d94	-0.3449837875682189
164	0xbfd4aabe30290fe4	-0.32292132094539583
165	0x3fd78bc07804d10e	0.3679047748621692
166	0x3fc00730535c5efc	0.1252193839106822
167	0xbfae784066f7b768	-0.05951119667939403
168	0x3fb6b11ac0e4e638	0.08863990029649294
169	0x3fc736b9cab3e904	0.1813575973281517
170	0x3fd14d96c00780c8	0.2703606486593455
171	0x3fb4fe92820a5454	0.08200946497739042
172	0xbfd772fffc5a78c0	-0.36639403957259375
173	0xbfd254ff82cd4d77	-0.2864378716814921
174	0xbfadcaa3f5e0a318	-0.05818664909776866
175	0x3fd01fb4319abce6	0.2519350513857276
176	0x3fc89d64d9357a38	0.19230328184035428
177	0x3f94f83fe2a9b4b0	0.020478246888548213
178	0xbfcaf30e9155b5ca	-0.21054250809122116
179	0xbfd1a5759483751d	-0.27572383406898543
180	0xbfcfdba188c86d44	-0.248890105999502
181	0x3fbb351d111d77e0	0.10627919833993316
182	0xbfcb66ec893ae4f4	-0.21407849026380854
183	0xbfd2f170c4416aa7	-0.29598635831431824
184	0xbf952036e691c120	-0.02063070089610719
185	0xbfad7608bea3c180	-0.05754115416664529
186	0xbfc180e83330512e	-0.13674643039178974
187	0x3fcb6435b9b69ba4	0.2139956623843463
188	0x3fc6c05cd79a83b8	0.17774544265287573
189	0x3fd4637b5cbb0756	0.31857189231606264
190	0xbfd4f99d7ae53df2	-0.3277353000785005
191	0xbfd63826187753d5	-0.34717705144185845
192	0x3fd85356e2867832	0.38008663293465184
193	0xbfd91c5aa4cfe86a	-0.3923555955403858
194	0x3fb59de1564deb88	0.08444031102219018
195	0x3fca2f577c608984	0.20456975529766563
196	0xbfc3cb7a117f38dd	-0.15464712004035777
197	0xbf92910a42e6cae0	-0.01813140900930932
198	0xbfc55ceca83287f0	-0.16689832890284562
199	0xbfd99488ae05c085	-0.39969079012281156
200	0x3fc8b8565297b6fc	0.1931255248340945
201	0xbfd0d47aab475962	-0.26296869970737735
202	0x3fbacf6095c32098	0.1047268262510691
203	0xbfd257c1476d8a48	-0.2866061399019242
204	0xbfd987a4fcd364ca	-0.3989040822030573
205	0xbfbc24d3d7319c6c	-0.10993694309000696
206	0xbfc56360fd720f27	-0.16709530234595002
207	0xbfcd17ca297d402a	-0.22728850389330663
208	0xbfca009dab363ced	-0.20314379558519793
209	0x3fc5bcd42179b5d8	0.16982509264509704
210	0xbfc9c30bde72437d	-0.20126484262121017
211	0x3fd8f7f2b7630c9a	0.3901335516822627
212	0x3fcec12e8b5dac5c	0.24027044110275397
213	0x3fc0d07ef83dfbd8	0.13136279221723046
214	0x3fd1512c719e2646	0.27057944388852595
215	0xbfc99103f162ebd0	-0.1997380188603004
216	0x3fd26c762781e418	0.28786996706145507
217	0xbf8ba40c05b7b740	-0.013496488499153636
218	0x3fc38fc045938520	0.15282443425443493
219	0xbfc66fb1aa2aa1e7	-0.17528363045609227
220	0xbfb6743a2e9798cc	-0.08771098744873312
221	0xbfd491d6c0036347	-0.3214012980584368
222	0xbfd595c945a45b15	-0.33726722527482994
223	0xbfd0c5caf8d48d6c	-0.26207231807548825
224	0xbfcac63cf486be04	-0.20917474689257187
225	0xbfafd839afaa2410	-0.06219654340117853
226	0xbfd1c77b3099a135	-0.2778003668413647
227	0x3fc2866913e48dec	0.1447268817074553
228	0xbfd295b612bca288	-0.29038764791270255
229	0x3fd220420603e994	0.28321886622838943
230	0xbfd34dda2333d1b5	-0.3016267150663013
231	0x3fd59c37690080c8	0.337659695187551
232	0xbfb648efdb13f1d4	-0.08705042933065182
233	0x3f75532771e4fc80	0.005206255036966145
234	0xbfd0964e8568098c	-0.2591739943310578
235	0x3fc3f3b32823e7f0	0.15587462863896873
236	0x3fd8a8a491c27cb6	0.3852931426462861
237	0xbfb8c8036c7dca4c	-0.09680196188654938
238	0x3f9820b324c72c80	0.023562239761116377
239	0x3fd2f37b02b984a0	0.29611087099153544
240	0x3fc3e36f9312e5bc	0.15537829095209854
241	0xbfd23417a294a974	-0.28442946316740536
242	0xbfd594b94286b21f	-0.3372023725194441
243	0xbfd1a76ac4b89205	-0.27584332667382255
244	0x3fb24b0aeb2a0a38	0.0714575599795716
245	0x3f92d62a1d9a6700	0.018395097786743086
246	0x3faa7eef9d7c81e8	0.05174969479981312
247	0x3fc66289a98cfccc	0.17488213328213076
248	0x3fd268d65ead1778	0.2876487659999536
249	0x3fc6b2f436ea296c	0.17733624154454775
250	0xbfbefa59c4a73874	-0.12100754786590234
251	0xbfaeb9abb61c5bf0	-0.06001030538589436
252	0x3fd3a909f29efbb8	0.30719231313190276
253	0x3fc292958b7cb1ac	0.14509839354412912
254	0x3fc67e310f7d07ec	0.17572606331128726
255	0xbfb4c7beb09d4eac	-0.08117286502720827
